assistant/model/AssistantModel.pth (torch, 44063 bytes, 6 tensors)

l1.weight f4 [64, 125]
0	0xbdd2f3a4	-0.10300377
1	0x3c0089f8	0.007845394
2	0xbe23515d	-0.15949006
3	0xbdf4d7f1	-0.1195525
4	0xbe12797e	-0.14304158
5	0xbe3af91d	-0.18259092
6	0xbdd8121e	-0.105503306
7	0xbd6c7846	-0.05773189
8	0xbde5d797	-0.11222761
9	0xbdae88e5	-0.08522204
10	0xbd582e68	-0.05277863
11	0xbdf4d2c8	-0.11954266
12	0x3d1fe383	0.03903533
13	0xbd2aa714	-0.041663244
14	0xbd69bd06	-0.057065032
15	0xbdf69465	-0.12040023
16	0xbe0d9254	-0.13825351
17	0x3a8c47fa	0.0010702603
18	0x3c14a4d0	0.0090724975
19	0x3c85db44	0.016339906
20	0xbe2517b6	-0.16122326
21	0x3e73fb0e	0.23826239
22	0x3e0f028c	0.13965815
23	0x3df46a01	0.11934281
24	0xbd88cc95	-0.06679646
25	0xbda3f813	-0.08006301
26	0xbc896bbf	-0.01677501
27	0xbe516c58	-0.20451486
28	0x3e242e9c	0.16033405
29	0xbe0d8340	-0.13819599
30	0xbc50b555	-0.012738545
31	0x3e07bbff	0.13255309
32	0xbd7b0248	-0.061281472
33	0xbcb7347f	-0.0223639
34	0xbdc27080	-0.09494114
35	0x3e0c3fc0	0.13696194
36	0x3cc2db27	0.02378614
37	0x3ce6a2e4	0.028153844
38	0xbe43cabc	-0.19120306
39	0xbd55b074	-0.052170232
40	0xbd2d2bc5	-0.04227807
41	0xbd94d2fd	-0.07266805
42	0x3b91cd4e	0.004449523
43	0x3e2ee9ea	0.17081419
44	0x3e34c5ca	0.17653576
45	0x3d3c41aa	0.04596106
46	0x3d31247e	0.043247692
47	0xbdfc4150	-0.12317145
48	0xbe1ad99b	-0.15122072
49	0xbd63693b	-0.055520277
50	0x3c86bf66	0.016448688
51	0xbc00f757	-0.00787147
52	0x3ba953b4	0.005167449
53	0x3c2de168	0.010612823
54	0xbdad7115	-0.08468834
55	0xbdb77c84	-0.08959296
56	0x3e529abe	0.20566842
57	0xbd5c17a1	-0.05373347
58	0xbd5b4bc2	-0.053539045
59	0x3d556862	0.0521015
60	0x3e92722f	0.2860274
61	0x3d9df8f0	0.07713497
62	0x3d90fc01	0.07079316
63	0x3dda14f8	0.10648531
64	0x3deb5e39	0.11492581
65	0x3e6e6b3c	0.23283094
66	0x3e515eda	0.20446339
67	0xbdc06c24	-0.09395626
68	0x3df26cc4	0.11837152
69	0x3e7acf84	0.24493223
70	0x3d8c4683	0.068493865
71	0xbd9d5dcc	-0.07683906
72	0x3d6f807e	0.05847215
73	0x3dff6f79	0.124724336
74	0x3e2aff78	0.16699016
75	0x3c40bb24	0.011763368
76	0xbc4b6d17	-0.012416146
77	0x3c8c34fb	0.017115107
78	0x3e3dd492	0.1853812
79	0xbd9920d9	-0.07476968
80	0x3c57929b	0.013157512
81	0xba90a376	-0.0011035043
82	0x3c11088c	0.008852135
83	0xbe544540	-0.20729542
84	0x3bf548c5	0.0074854814
85	0xbdd1e7a4	-0.1024926
86	0xbc867e89	-0.016417759
87	0xbd9afd64	-0.07567862
88	0xbe2fde5b	-0.17174666
89	0x3e5b8020	0.21435595
90	0xbe1eb6c0	-0.15499401
91	0xbdb59174	-0.088656336
92	0xbda2bfff	-0.079467766
93	0xbda57ef3	-0.08080854
94	0xbdafa61a	-0.08576603
95	0x3daeb0a4	0.08529785
96	0xbd9f1052	-0.07766785
97	0x3d1ac2c6	0.037783407
98	0x3e5d3798	0.21603239
99	0x3b5e4a58	0.0033918824
100	0x3d51f65f	0.05126035
101	0x3d3784b1	0.04480428
102	0xbd8c9e21	-0.06866098
103	0xbceb064a	-0.028689522
104	0xbd64aec5	-0.055830736
105	0xbe029c18	-0.12754858
106	0x3e30a652	0.17250946
107	0x3cf7ac2c	0.030233465
108	0x3d15a9ea	0.036538996
109	0xbdc933b1	-0.098243125
110	0xbc9f0cd4	-0.019415297
111	0x3d904f3f	0.07046365
112	0x3d475a4e	0.048670106
113	0xbd31b385	-0.043384094
114	0xbe329609	-0.17440046
115	0x3d1d64e6	0.038426302
116	0x3e23c3b1	0.15992619
117	0x3d8cf29d	0.06882212
118	0xbda6bc55	-0.0814139
119	0xbc83f2bc	-0.016106956
120	0xbd60bd2c	-0.05486791
121	0x3e2f8492	0.17140415
122	0x3dda6750	0.106642365
123	0xbdc6e109	-0.09710891
124	0x3d6b441e	0.05743801
125	0x3d861d71	0.06548584
126	0x3e49dac8	0.19712365
127	0x3e2fe915	0.17178757
128	0x3e4584f6	0.19289002
129	0x3e1002e7	0.14063607
130	0x3e03ecea	0.12883344
131	0x3e190730	0.14944148
132	0x3d7a1693	0.061056685
133	0x3e203e96	0.15648875
134	0x3e1ff70c	0.15621585
135	0x3d2150d4	0.039383724
136	0x3e221a6f	0.15830396
137	0x3db78733	0.08961334
138	0x3e0e292f	0.13882898
139	0x3e0acf99	0.13555755
140	0x3d1306de	0.03589522
141	0x3d1a952d	0.03773992
142	0x3dd09ecf	0.1018654
143	0xbd4566b7	-0.04819366
144	0x3e89da25	0.26924244
145	0x3ba24b90	0.0049528554
146	0xbd869be0	-0.065726995
147	0xbdea76a2	-0.11448409
148	0xbe00caa7	-0.12577306
149	0x3e2264d3	0.15858774
150	0x3e03355a	0.12813321
151	0x3d6452d7	0.055743065
152	0x3cd5007e	0.026001211
153	0x3e2ecccc	0.17070311
154	0x3e2597f6	0.1617125
155	0xbc36333a	-0.011120612
156	0xbd192149	-0.03738526
157	0x3e2259ab	0.15854518
158	0x3e25d26a	0.16193548
159	0xbdeec8fc	-0.116594285
160	0x3e43afc7	0.19110022
161	0x3d3d1b1d	0.046168435
162	0x3e40f944	0.18845087
163	0x3c077ab0	0.008268997
164	0xbdc8e646	-0.09809546
165	0x3da51188	0.080599844
166	0x3e1d7310	0.15375924
167	0xbd004b23	-0.031321656
168	0x3cd25d5f	0.025679288
169	0xbd54ca0c	-0.0519505
170	0x3ce6b3d3	0.028161919
171	0x3d81cbaf	0.06337678
172	0x3e0f1d5f	0.13976048
173	0x3e1f642c	0.15565556
174	0xbbf13d28	-0.0073620267
175	0xbcc352b5	-0.023843149
176	0x3cc0d35f	0.02353829
177	0x3d161291	0.0366388
178	0x3d0b204d	0.03396635
179	0x3e015dc9	0.12633432
180	0x3d705128	0.058671147
181	0x3e5ad980	0.21372032
182	0x3dbf0eeb	0.09329017
183	0xbc9f2401	-0.019426348
184	0x3da03b09	0.0782376
185	0xbdd4261a	-0.1035883
186	0xbe12df16	-0.14342913
187	0x3dd467fc	0.10371396
188	0x3cd87268	0.02642174
189	0xbdea1cb0	-0.11431253
190	0xbdd2e191	-0.1029693
191	0xbe34cabe	-0.17655465
192	0x3d56f6f2	0.0524816
193	0x3e1d28e2	0.15347627
194	0xbd81d7ff	-0.06340026
195	0x3dc760bb	0.09735247
196	0x3b867e6d	0.0041044266
197	0x3e55d396	0.20881495
198	0x3bf0b49a	0.007345748
199	0xbb9caa71	-0.0047810604
200	0x3d8399fb	0.06425854
201	0xbe076fb0	-0.13226199
202	0x3ceab534	0.028650858
203	0x3e03840b	0.12843339
204	0x3db0af66	0.086272046
205	0x3e12ad19	0.14323844
206	0x3d974854	0.07386842
207	0x3e24ad2f	0.1608169
208	0xbdc7d22d	-0.09756885
209	0x3d12f33f	0.03587651
210	0x3de02475	0.109444536
211	0x3e218b45	0.15775783
212	0x3cabc28d	0.020966792
213	0xbd82e701	-0.06391717
214	0x3e55a575	0.20863898
215	0x3d24c752	0.04022915
216	0x3cc37cf2	0.02386329
217	0x3d1cdf2a	0.038298763
218	0xbe2ccd6f	-0.16875242
219	0xbd01e47f	-0.03171205
220	0x3e579a83	0.21055035
221	0x3d5358c4	0.051598325
222	0x3e28d464	0.1648727
223	0xbd25d044	-0.04048182
224	0x3dbe3fa2	0.09289481
225	0x3cb2f6fb	0.021846285
226	0x3bec803b	0.0072174347
227	0x3de841fa	0.11340709
228	0x3d32ed68	0.04368344
229	0x3d9e8e0e	0.077419385
230	0x3d5ea125	0.0543529
231	0xbdb3227e	-0.08746813
232	0xbc6fdd0f	-0.014640107
233	0x3dbac69e	0.091199145
234	0xbc48e51c	-0.012261655
235	0x3d8742db	0.066045485
236	0x3dbb07e2	0.09132363
237	0xbe241a15	-0.16025575
238	0x3db8cab6	0.09023039
239	0x3d42178b	0.047385734
240	0xbba32037	-0.0049782055
241	0x3e152dcb	0.1456825
242	0x3dbfe0c2	0.09369041
243	0x3e2a6d36	0.16643223
244	0x3defb357	0.11704128
245	0x3c23e402	0.010003092
246	0x3d811fb2	0.063048735
247	0xbdf0756d	-0.11741147
248	0x3d7d4d09	0.061841045
249	0x3d83497a	0.06410499
250	0x3e2c2cc8	0.16813958
251	0xbd5a584f	-0.053306874
252	0x3e2a3f49	0.16625704
253	0x3e0535de	0.1300883
254	0x3d1434ce	0.03618317
255	0x3dafa46f	0.08576285

l1.bias f4 [64]
0	0x3ea41033	0.3204361
1	0x3e6792fd	0.22614665
2	0x3e406fc9	0.18792643
3	0x3e834d93	0.25645122
4	0x3e5f6fc4	0.21819979
5	0x3eb4f26f	0.35341212
6	0x3e915d19	0.2839134
7	0x3e565140	0.20929432
8	0x3e4b509b	0.19854967
9	0x3e494202	0.19654086
10	0x3e5403b3	0.20704536
11	0x3e65e1a6	0.2244936
12	0x3e87bb89	0.26510265
13	0x3e634d82	0.22197536
14	0x3e87e9f1	0.2654567
15	0x3e7c2b40	0.24625874
16	0x3e6aed00	0.22941971
17	0x3e86d741	0.263361
18	0x3e617b58	0.22019708
19	0x3e2b781f	0.16745041
20	0x3e7538da	0.23947468
21	0x3dc91ac4	0.09819558
22	0x3e82f335	0.25576177
23	0x3eb15267	0.3463318
24	0x3eae99be	0.3410167
25	0x3e70efd4	0.23528987
26	0x3e9099d5	0.28242365
27	0x3e3578ce	0.17721865
28	0x3e443bc5	0.19163425
29	0x3e554729	0.20827927
30	0x3e13a069	0.1441666
31	0x3e6500b9	0.22363557
32	0x3e163db0	0.1467197
33	0x3e0e4b35	0.13895877
34	0x3e3a3f7b	0.18188278
35	0x3e375eb5	0.17907222
36	0x3e633abf	0.22190379
37	0x3e046f08	0.1293298
38	0x3e758ed9	0.23980273
39	0x3e9becab	0.30454
40	0x3e77a140	0.24182606
41	0x3dadb1fb	0.08481213
42	0x3e74498e	0.23856184
43	0x3ea25ccd	0.31711426
44	0x3e566cf6	0.20940003
45	0x3e078deb	0.13237731
46	0x3eab4be0	0.33456326
47	0x3e0e0d59	0.13872279
48	0x3e358444	0.17726237
49	0x3d223ccf	0.039608773
50	0x3dc7d94d	0.09758244
51	0x3dbbf90b	0.091783606
52	0x3e983c54	0.29733527
53	0x3e563c89	0.2092153
54	0x3e8dd587	0.2770197
55	0x3d9b67cf	0.07588159
56	0x3e6de179	0.23230542
57	0x3d90d4b9	0.070718236
58	0x3e3140ee	0.17309925
59	0x3e658c40	0.22416782
60	0x3e48d7cb	0.19613568
61	0x3dca6640	0.09882784
62	0x3e36b67d	0.17843051
63	0x3e8a6b28	0.2703488

l2.weight f4 [32, 64]
0	0xbe34887f	-0.17630194
1	0x3d967433	0.07346382
2	0x3e993e0b	0.29930148
3	0x3dd293f0	0.10282123
4	0x3e9af8e5	0.30268016
5	0x3e8a222f	0.26979205
6	0x3e549ba0	0.20762491
7	0xbc16a85d	-0.009195414
8	0x3e9a0e14	0.30088866
9	0x3e8a1000	0.26965332
10	0x3de2b0d4	0.110688835
11	0x3e2448f3	0.16043453
12	0x3eda6b25	0.4265987
13	0x3e611424	0.2198034
14	0x3de885e9	0.11353666
15	0xbe86b680	-0.2631111
16	0x3d294f9f	0.0413357
17	0x3e8f741f	0.2801828
18	0xbd848142	-0.064699665
19	0x3eca6884	0.39532864
20	0x3e546ffa	0.2074584
21	0xbb254213	-0.0025216385
22	0xbddbc9da	-0.107318595
23	0xbd210742	-0.039313562
24	0xbdf18430	-0.11792791
25	0x3e9b36fc	0.30315387
26	0xbe064930	-0.13113856
27	0x3e32156e	0.17390987
28	0x3d9aa1e6	0.07550411
29	0xbc21ddc5	-0.009879534
30	0x3ea0574e	0.31316608
31	0x3e56f5a6	0.20992145
32	0x3c49a97c	0.012308475
33	0x3e7a2bb4	0.24430734
34	0x3e66a5ae	0.2252414
35	0x3e9059f3	0.28193626
36	0xbe2a8d33	-0.16655426
37	0xbd56af0f	-0.052413043
38	0x3ee20858	0.4414699
39	0xbd828292	-0.063725606
40	0xbdfa7d56	-0.12230937
41	0x3cf577f5	0.029964427
42	0x3e563377	0.2091807
43	0x3d1716e6	0.036887072
44	0xbdda755e	-0.10666917
45	0x3ca956a6	0.0206712
46	0x3e078d7e	0.13237569
47	0x3e3ee28b	0.18641107
48	0x3f13bcca	0.57709944
49	0x3e70f69e	0.23531577
50	0x3bbfc476	0.0058522774
51	0x3eaef16a	0.3416856
52	0xbe338235	-0.17530139
53	0x3deb3ddd	0.11486409
54	0xbd063287	-0.03276303
55	0xbe5af43a	-0.21382228
56	0xbc862513	-0.0163751
57	0x3ee1e291	0.4411817
58	0xbe5fde4b	-0.21862142
59	0x3ec88c73	0.39169654
60	0x3d863818	0.06553668
61	0x3eb155f4	0.3463589
62	0xbdc8d655	-0.098065056
63	0xbd2794fc	-0.040913567
64	0x3e82faac	0.25581872
65	0x3d9abe2d	0.075558044
66	0xbd835456	-0.0641257
67	0xbe069fa2	-0.13146833
68	0x3e8a89a3	0.27058133
69	0xbd0ee0b8	-0.034882277
70	0xbdc1716b	-0.09445461
71	0xbe94ff1a	-0.29100877
72	0x3e987ff7	0.2978513
73	0x3e9eb33c	0.3099612
74	0x3e8b98a7	0.27264902
75	0x3de4a521	0.11164308
76	0x3e4fb037	0.20282064
77	0x3ec96b46	0.39339656
78	0xbd7f81f2	-0.062379785
79	0xbe0e7a19	-0.13913764
80	0x3e38b622	0.18038228
81	0x3ec4e448	0.38455415
82	0x3d883743	0.06651165
83	0xbe2143e9	-0.15748562
84	0x3ccb0f31	0.024787517
85	0x3e546afd	0.20743938
86	0xbe88e602	-0.26737982
87	0x3e88231d	0.2658929
88	0x3d210bc1	0.03931785
89	0x3e3446a8	0.17605078
90	0xbd786727	-0.06064525
91	0x3e9a687d	0.30157843
92	0x3e333964	0.17502362
93	0x3e7d23a4	0.24720627
94	0xbdd55d48	-0.104181826
95	0xbcf7ed85	-0.030264625
96	0xbc54213e	-0.012947379
97	0x3e595400	0.2122345
98	0x3eae92c0	0.34096336
99	0x3ec2dfa3	0.38061246
100	0x3e0cfe82	0.13768962
101	0xbe238ac4	-0.15970904
102	0x3e63c032	0.22241285
103	0x3e9a1f80	0.30102158
104	0x3dc3be87	0.095578246
105	0x3e85701c	0.26062095
106	0x3d8d941b	0.069130145
107	0x3e25c71a	0.16189232
108	0x3da60a2c	0.08107409
109	0x3d685bf6	0.056728326
110	0x3e2bb30a	0.16767517
111	0x3e03cf1a	0.12871972
112	0x3f046eef	0.5173177
113	0x3e79f859	0.24411143
114	0x3e2a3aaf	0.16623949
115	0x3de8ee8a	0.11373623
116	0x3d1fd5f5	0.039022405
117	0xbe4045d2	-0.18776634
118	0x3dca1d7a	0.098689035
119	0xbe512523	-0.20424323
120	0x3e7d68e8	0.2474705
121	0x3d86cc6c	0.06581959
122	0xbd930482	-0.07178594
123	0x3e2699cf	0.16269611
124	0x3d941451	0.072304375
125	0x3dfe11c9	0.12405736
126	0x3e5966cc	0.2123062
127	0x3daa2158	0.08307141
128	0x3df27bd6	0.11840026
129	0x3e33a7fe	0.17544553
130	0xbea5902c	-0.32336557
131	0x3e9faff2	0.31188923
132	0xbe287564	-0.16451031
133	0x3cb52da2	0.022116486
134	0x3cbac84e	0.02280059
135	0x3e97af43	0.29625902
136	0xbedb5e0a	-0.42845184
137	0xbb6fb76a	-0.003657783
138	0x3d7a33c0	0.06108451
139	0xbe3cb772	-0.18429354
140	0xbed9363b	-0.42424187
141	0xbe86041b	-0.26175007
142	0x3cc493f6	0.023996335
143	0x3f06e5ee	0.52694595
144	0xbd744290	-0.05963379
145	0x3cd63863	0.026149934
146	0x3e60ea89	0.21964468
147	0xbd16d6d1	-0.03682596
148	0x3e23f5ff	0.16011809
149	0xbd174094	-0.03692682
150	0x3ea84333	0.3286377
151	0x3d9fefee	0.07809435
152	0x3ebdae27	0.3704693
153	0xbd3bb044	-0.045822397
154	0x3ed8fc3c	0.4237994
155	0xbe96fc0d	-0.29489174
156	0xbe1e64dd	-0.15468164
157	0x3df8da8b	0.12151059
158	0xbe963d9d	-0.29343882
159	0x3dc4a74a	0.0960222
160	0x3db88cb0	0.09011209
161	0xbef64452	-0.48099
162	0x3c80507b	0.015663376
163	0xbe5892b4	-0.21149713
164	0x3e1ba512	0.15199688
165	0x3eacac99	0.33725432
166	0xbef44c40	-0.47714424
167	0xbf0c489c	-0.54798293
168	0x3e3f8487	0.18702899
169	0x3c027516	0.007962486
170	0xbd98b73f	-0.074568264
171	0xbd1f2f95	-0.038863737
172	0x3e245c40	0.16050816
173	0x3d226bb7	0.039653506
174	0xbd906be9	-0.07051832
175	0x3dd5a7d7	0.104324035
176	0xbf0e1732	-0.55504143
177	0xbdfc246b	-0.12311634
178	0x3e1f7efa	0.15575781
179	0xbe5f52bf	-0.21808909
180	0x3e4f75fe	0.20259854
181	0x3eb3ea04	0.35139477
182	0x3e990e45	0.298937
183	0x3ecd5b8c	0.40108907
184	0x3e0e30d2	0.13885811
185	0xbe7ae1b3	-0.2450016
186	0x3ee4a4dd	0.4465703
187	0xbdb18154	-0.086672455
188	0x3e089029	0.13336243
189	0xbe9982ad	-0.2998251
190	0x3e08b56b	0.13350455
191	0x3e943277	0.28944752
192	0x3ee011c1	0.43763545
193	0x3daecdb6	0.0853533
194	0x3bdcb1ee	0.006735078
195	0x3e12e15e	0.14343783
196	0x3e727d66	0.23680648
197	0x3dc36105	0.095399894
198	0x3da96dd0	0.08272898
199	0xbc787232	-0.015163945
200	0x3ef272af	0.47353122
201	0x3e2b7620	0.1674428
202	0xbc072a22	-0.008249791
203	0x3e845e32	0.25853115
204	0xbd0f04e0	-0.03491676
205	0x3da9057b	0.082529984
206	0x3ec665bd	0.38749495
207	0xbe114d68	-0.14189684
208	0x3df8bdb6	0.121455595
209	0x3e929f97	0.28637382
210	0xbd4abe8f	-0.049498137
211	0xbe8a16ce	-0.26970524
212	0xbe0c6431	-0.13710095
213	0xbda7f4d9	-0.08200998
214	0xbd2b04ed	-0.041752744
215	0x3ee42280	0.4455757
216	0x3e90c471	0.28274873
217	0x3e8d680c	0.27618444
218	0x3e75f247	0.24018203
219	0xbdc589c3	-0.096454166
220	0x3db324ac	0.08747229
221	0x3e041f6a	0.12902609
222	0x3e81fee4	0.2538978
223	0xbde88523	-0.11353519
224	0xbe04c7e9	-0.12966885
225	0x3e280a93	0.16410284
226	0xbea9549c	-0.33072364
227	0x3d681c4d	0.056667615
228	0x3e2b362d	0.16719885
229	0x3f015f30	0.5053587
230	0xbe2463a5	-0.16053636
231	0x3ee0ad7d	0.4388236
232	0x3d973975	0.07384006
233	0xbbfada00	-0.007655382
234	0xbe415a33	-0.18882065
235	0x3ec037b1	0.3754249
236	0x3e8f2c07	0.27963278
237	0x3df67917	0.12034815
238	0x3ee3e42b	0.44510016
239	0x3e2b6c14	0.16740447
240	0x3e53efe2	0.20696977
241	0x3e49b7d9	0.19699039
242	0x3e12fb01	0.14353563
243	0xbcde4e09	-0.02713682
244	0x3eaedf98	0.34154963
245	0xbd0eeecf	-0.034895714
246	0x3d9a197e	0.075243935
247	0x3e56f37d	0.20991321
248	0x3db00ef9	0.08596606
249	0xbe61795d	-0.22018953
250	0x3e262115	0.16223557
251	0x3e38292b	0.17984454
252	0xbcc6c7b0	-0.02426514
253	0x3d8336ca	0.064069346
254	0x3d936b63	0.07198217
255	0x3eda8756	0.42681378

l2.bias f4 [32]
0	0x3e09235c	0.13392395
1	0x3e2db84a	0.16964832
2	0x3e3845d3	0.17995386
3	0x3ddeaaf6	0.10872452
4	0xbdb3319d	-0.08749697
5	0xbdd6bad6	-0.10484855
6	0xbce31a0c	-0.027722381
7	0xbd71decf	-0.059050377
8	0x3e2da5a3	0.16957717
9	0xbdd64c77	-0.10463803
10	0x3bbf310a	0.0058347033
11	0x3d32cbdc	0.043651447
12	0x3de51096	0.11184804
13	0x3caf9438	0.02143298
14	0x3e89a757	0.26885483
15	0xbd045720	-0.03230965
16	0x3e4000e2	0.18750337
17	0x3de7ba7e	0.113148674
18	0x3d7baddf	0.061445113
19	0xbcb8a0cf	-0.022537617
20	0x3e4220c7	0.18957816
21	0x3dc257a6	0.09489374
22	0x3bcbaf22	0.006215946
23	0x3e77f11d	0.24213071
24	0x3e7aeb88	0.2450391
25	0xbd7e6b7a	-0.062114216
26	0x3ca91573	0.02064011
27	0x3df1be3d	0.11803863
28	0x3e27f4eb	0.16402023
29	0x3e4d836d	0.20069666
30	0x3e08a8ee	0.13345692
31	0x3e793749	0.24337496

l3.weight f4 [9, 32]
0	0x3df8897b	0.12135597
1	0xbe2862e7	-0.16443978
2	0xbde6ba68	-0.11266023
3	0xbda362af	-0.07977807
4	0x3e376f75	0.17913611
5	0x3c7ab9e9	0.0153031135
6	0xbd689e88	-0.056791812
7	0xbdf1c45d	-0.118050314
8	0x3e93780b	0.28802523
9	0xbdfab013	-0.12240615
10	0xbdcd7d12	-0.10033621
11	0x3de494a6	0.11161165
12	0xbeb690a1	-0.35657218
13	0xbda07125	-0.078340806
14	0x3cd19323	0.025582856
15	0xbdc488c5	-0.09596399
16	0x3ea0ff31	0.31444696
17	0x3dd28654	0.10279527
18	0xbe76968d	-0.24080868
19	0xbe6f7d34	-0.23387605
20	0x3e78c449	0.24293627
21	0xbe8d43a5	-0.2759067
22	0x3de0497c	0.10951516
23	0x3e91c8d5	0.28473535
24	0xbf24b120	-0.6433277
25	0xbd534efb	-0.051588994
26	0x3e186dc4	0.14885622
27	0xbed4642d	-0.41482678
28	0xbf202dd4	-0.6256993
29	0xbedc7114	-0.43055022
30	0x3d655af7	0.055994954
31	0xbd45db38	-0.048304766
32	0xbd1ff7f8	-0.03905484
33	0x3dd59a0e	0.10429774
34	0xbee7e0bd	-0.4528865
35	0x3e98cb90	0.29842806
36	0xbeae3b74	-0.34029734
37	0x3e0a6f6f	0.13519071
38	0x3e5002ce	0.2031357
39	0xbee5d81d	-0.44891444
40	0xbedad881	-0.42743304
41	0x3cd9984b	0.026561877
42	0xbe002309	-0.12513365
43	0xbed60958	-0.41804004
44	0x3e35d435	0.17756732
45	0x3e1f712d	0.15570517
46	0x3eb6a130	0.3566985
47	0xbd3087dc	-0.043098316
48	0x3d4f0edf	0.05055129
49	0x3ef9aa91	0.48762944
50	0xbe192e11	-0.14958979
51	0xbe71d334	-0.23615724
52	0x3eb299be	0.3488292
53	0xbeb50e8c	-0.3536266
54	0xbf12e328	-0.5737786
55	0xbe799f97	-0.24377285
56	0xbd058ed2	-0.032606907
57	0xbc2b3360	-0.0104492605
58	0x3d18441a	0.03717432
59	0x3d9d5145	0.076815166
60	0xbf13fef2	-0.5781089
61	0xbee61c68	-0.44943547
62	0x3e4942bb	0.19654362
63	0x3ebca85a	0.36847192
64	0x3e06398f	0.13107894
65	0x3e9da2c8	0.30788255
66	0xbe8e85b2	-0.27836376
67	0x3e3a54ec	0.18196458
68	0xbed67498	-0.4188583
69	0x3d159f14	0.03652866
70	0xbedb55c5	-0.42838874
71	0x3dcc0811	0.09962476
72	0xbedf5793	-0.436215
73	0xbd771d9c	-0.060330972
74	0xbdcb0b36	-0.09914248
75	0xbe739583	-0.23787503
76	0x3e18f0e8	0.14935648
77	0xbee47ba5	-0.44625583
78	0xbeb09a63	-0.34492788
79	0x3de5dfc2	0.11224319
80	0x3de9114f	0.113802545
81	0xbec35076	-0.38147324
82	0xbe5e62dd	-0.21717401
83	0x3e1c0c5c	0.1523909
84	0xbd892e72	-0.06698312
85	0x3eb6f410	0.3573308
86	0xbefab119	-0.4896324
87	0xbf1bc861	-0.6085263
88	0x3ed55726	0.4166805
89	0xbd9cdcf6	-0.076593325
90	0xbe07c862	-0.13260034
91	0x3eadd0e2	0.33948427
92	0xbf01f63b	-0.5076634
93	0x3e1be35f	0.15223454
94	0xbf0d0a90	-0.5509424
95	0x3ede1b31	0.4338012
96	0xbecc223e	-0.39869875
97	0xbe899c45	-0.26877037
98	0x3ee689d3	0.45027027
99	0x3e2f2d85	0.17107208
100	0xbf068685	-0.5254901
101	0xbe24321a	-0.16034737
102	0xbe383444	-0.17988688
103	0xbf0d55de	-0.5520915
104	0x3e4a983c	0.19784635
105	0xbdc313f6	-0.095252916
106	0xbe6b2a43	-0.2296534
107	0xbe8033e0	-0.25039577
108	0x3e937d92	0.2880674
109	0xbeaf58af	-0.34247348
110	0xbe0f5d7f	-0.1400051
111	0x3ced2a30	0.02895078
112	0x3e3ba1e5	0.18323477
113	0xbe4f2e8f	-0.20232604
114	0xbec39dce	-0.38206333
115	0xbbd648e3	-0.0065394505
116	0xbec1d004	-0.37854016
117	0x3d92f3ae	0.071753845
118	0xbde82a18	-0.11336154
119	0x3d897580	0.067118645
120	0x3df62344	0.12018445
121	0xbdd1b75c	-0.10240051
122	0x3db963af	0.09052216
123	0x3d94eeb9	0.07272095
124	0x3d3d1f42	0.046172388
125	0xbd8c8e0a	-0.06863029
126	0xbf1fcfff	-0.6242675
127	0xbd555398	-0.052081674
128	0x3e20c44d	0.15699883
129	0x3e82ffce	0.25585788
130	0xbe8fd458	-0.28091693
131	0xbd6fa80a	-0.058509864
132	0xbe943617	-0.28947517
133	0x3e10d4df	0.14143704
134	0x3e8c4d15	0.2740256
135	0xbe9dea8b	-0.30843005
136	0xbea90af3	-0.33016166
137	0xbdb73ee3	-0.089475416
138	0x3e3ec8b1	0.18631245
139	0x3e8fcf7d	0.28087988
140	0xbef8c6d4	-0.48589194
141	0x3e977f2b	0.2958921
142	0x3e34d789	0.17660345
143	0xbd17b430	-0.037037075
144	0xbf19d5fe	-0.6009215
145	0xbeafe0fa	-0.3435133
146	0xbe7113e9	-0.23542751
147	0x3e606d29	0.21916641
148	0xbec44615	-0.38334718
149	0x3e5088be	0.20364663
150	0xbe936945	-0.28791252
151	0xbed7915f	-0.42103097
152	0x3df8392e	0.12120281
153	0x3e221035	0.15826495
154	0xbca1d224	-0.019753523
155	0x3e9bb8f2	0.3041454
156	0xbebd041c	-0.36917198
157	0x3b02b529	0.0019944406
158	0x3e33706a	0.17523351
159	0x3e12127e	0.14264867
160	0xbdf27ce9	-0.11840231
161	0x3d02a024	0.031891003
162	0x3e989cb2	0.2980705
163	0xbec04286	-0.37550753
164	0xbe454f32	-0.19268492
165	0x3d82a1db	0.06378528
166	0x3e50f85c	0.20407242
167	0xbebba6c0	-0.36650658
168	0x3e719cd8	0.23594987
169	0x3cf80cb7	0.0302795
170	0xbdbbc05b	-0.09167548
171	0x3da66257	0.081242256
172	0xbe8ea3f3	-0.27859458
173	0xbe4825fa	-0.19545737
174	0x3e570021	0.20996143
175	0xbde1341e	-0.10996269
176	0xbe578361	-0.21046211
177	0xbd02c230	-0.031923473
178	0x3cc6cd13	0.024267709
179	0xbeb16ccd	-0.3465332
180	0xbede7219	-0.43446425
181	0xbeb1283c	-0.3460101
182	0x3daf6ac8	0.08565289
183	0x3e998d96	0.29990834
184	0xbf02f54e	-0.51155555
185	0xbdc57da6	-0.09643106
186	0xbe18bd77	-0.14916025
187	0xbe683c66	-0.2267929
188	0x3ece8b8a	0.40340835
189	0x3d614d0e	0.055005126
190	0x3e744592	0.23854664
191	0xbdafaf66	-0.085783765
192	0x3e2ab980	0.16672325
193	0xbe493915	-0.19650681
194	0xbe966c13	-0.2937933
195	0xbf003423	-0.50079554
196	0x3e2a9914	0.16659957
197	0x3e13a3f2	0.14418009
198	0xbe47cbc9	-0.19511332
199	0x3e6fce11	0.23418452
200	0xbebb3e68	-0.3657105
201	0xbd9bdb64	-0.07610205
202	0xbdd21457	-0.10257786
203	0xbec1978d	-0.37810937
204	0xbf01675d	-0.50548345
205	0xbe8c340c	-0.2738346
206	0x3e8b74cf	0.27237555
207	0x3e07a60f	0.1324694
208	0x3e8b8ae1	0.27254394
209	0xbf01d44c	-0.50714564
210	0xbd972fe2	-0.0738218
211	0xbde076b8	-0.10960144
212	0xbdf7728f	-0.12082397
213	0x3e222e2f	0.1583793
214	0x3e6830ca	0.22674862
215	0x3e8d5632	0.27604824
216	0x3e944c5f	0.28964517
217	0xbcd2eb07	-0.025746835
218	0xbdf6f3e4	-0.12058237
219	0x3e62197d	0.22080036
220	0xbf30067d	-0.687599
221	0xbecec4f5	-0.4038464
222	0xbec77dad	-0.3896307
223	0xbee8bca3	-0.45456418
224	0x3e46e39a	0.1942276
225	0x3e310c37	0.17289816
226	0xbe1226f4	-0.14272672
227	0x3e32b081	0.17450143
228	0x3ea6fd78	0.32615256
229	0xbe20c991	-0.15701891
230	0x3e87feb9	0.26561525
231	0x3ee56468	0.44803166
232	0xbddacb4c	-0.10683307
233	0x3dfef9b0	0.12449968
234	0x3e74b3fb	0.23896782
235	0xbbb422e1	-0.005497322
236	0xbe007043	-0.12542824
237	0xbe0d75a2	-0.13814405
238	0xbf02028b	-0.5078513
239	0xbb8c6fc0	-0.0042857826
240	0xbec4a552	-0.3840738
241	0x3e2394d7	0.15974747
242	0x3ec31712	0.3810354
243	0x3e379ba8	0.17930472
244	0x3ec9c268	0.39406133
245	0xbe005558	-0.12532556
246	0x3eaa8af2	0.33309132
247	0xbe8a1544	-0.2696935
248	0xbea6b967	-0.32563326
249	0x3b94543e	0.004526644
250	0xbd59cb42	-0.053172357
251	0xbee4be90	-0.44676638
252	0x3c03cc89	0.00804437
253	0xbe0c1a16	-0.13681826
254	0x3dd11559	0.1020915
255	0xbe92e196	-0.28687733

l3.bias f4 [9]
0	0xbdf15f99	-0.11785812
1	0x3e317e08	0.17333233
2	0xbb44f345	-0.0030052227
3	0x3ccfd274	0.025368907
4	0xbd9a5573	-0.075358294
5	0x3dd501e9	0.10400755
6	0x3e10a64e	0.1412594
7	0xbd9dc5b5	-0.07703725
8	0xbd4975b6	-0.049184524
