assistant/model/AssistantModel.pth (torch, 50847 bytes, 6 tensors)

l1.weight f4 [64, 151]
0.16493005 -0.004111098 0.08357626 0.13196015 0.055660013 0.11421891 0.0729838 0.012806543
0.18210849 0.116797924 0.074024744 0.08208246 0.11063022 0.043879934 0.031837977 0.15760326
0.12847592 0.007001358 0.07649746 0.014028023 0.0047805463 0.007203586 -0.14997703 0.21522048
0.025523696 0.08404079 -0.10324758 -0.25477523 -0.07443307 0.026911 0.1140372 -0.13632554
-0.07417634 0.0908355 0.2770323 -0.008772495 -0.07314818 -0.07935795 -0.17924103 0.09958436
0.19351755 -0.0690496 0.047157258 -0.08195114 -0.0055214753 0.026983604 0.1134437 0.31944355
0.20626248 0.025668466 0.012421354 0.15819013 -0.002877319 0.047427375 0.11289409 -0.13496706
0.09350263 0.04630156 -0.14911613 -0.04280904 0.044978958 -0.13548025 0.024798343 0.13458918
0.082503095 0.30702126 0.04260797 -0.079509385 0.2504924 0.18015692 0.032651387 0.038654048
-0.076878965 0.2195903 0.26278147 0.22675374 0.112567395 0.067796394 0.33261943 0.096807286
-0.0057929447 0.07928955 0.22284856 0.20196655 0.06969932 0.028146885 -0.042988956 -0.0657754
-0.121997245 0.07026371 0.038896583 -0.021732662 0.18630672 -0.028638499 0.034201227 -0.27432257
-0.009301164 0.011186018 -0.026338821 0.08273449 0.019393388 0.0126519 -0.047938798 0.11596951
-0.054490928 0.06015586 0.028713843 0.09850123 -0.05548225 -0.12442063 0.020091815 0.089711994
0.028966447 0.10469618 -0.09661404 -0.0009444738 0.30379087 0.054234315 0.15390581 0.0645942
0.20005728 0.17676021 0.030355727 0.04275026 0.008460011 0.07766802 0.050374154 0.09729895
0.06518503 0.04473924 0.1278735 0.14754523 0.18992665 0.06615843 0.09022259 0.064346276
0.044987593 0.05271408 -0.091145076 0.06298956 -0.13364549 -0.06772026 0.066514045 0.057241485
0.0356676 0.16588394 0.0598856 0.14097047 0.11960366 0.032977093 0.1656938 0.16808999
0.22501175 0.19917151 0.1564512 0.17337756 0.13271162 0.17034686 0.22491647 0.15692143
0.13574746 0.08979992 0.054418597 0.013357139 0.11676619 0.19064127 0.17241023 0.21924832
0.009410856 0.034366786 0.1782132 0.015308632 -0.05849006 0.069276445 -0.085638784 -0.07665318
-0.092199676 0.031399373 -0.05435645 0.21657424 0.13067517 -0.10005474 0.20758784 0.13617912
0.042249918 -0.05094633 -0.0037215569 0.17977855 -0.06807334 0.22865039 0.05582798 0.00067942974
0.15500708 0.09085365 -0.006063489 -0.03299311 0.031420846 -0.1030997 -0.05126186 -0.14109053
0.1572073 0.10761106 -0.1721385 0.07729741 0.04620351 0.10993442 0.12896375 -0.063058436
0.11192006 0.1849762 -0.008336537 -0.08136404 0.10292728 0.047825996 0.07378048 0.052322917
-0.06256318 -0.050813876 0.20330445 -0.13997777 -0.050546393 -0.05037169 -0.050415568 0.18175995
-0.044721577 -0.09349758 0.02946714 -0.0963509 0.003158513 -0.03716559 0.03952673 0.11127073
-0.04329104 -0.0056543425 0.005593158 0.08197117 0.019275319 -0.083327405 0.1283984 0.066658236
0.07495693 0.037290867 -0.010580963 -0.1917718 0.018142514 -0.056032453 -0.1393957 0.05613862
-0.024500698 -0.08497517 0.047766704 0.06620177 0.059095904 -0.067665115 -0.059997708 0.20185937
00000000: 6ce3 283e 64b6 86bb 082a ab3d 9020 073e
00000010: c1fb 633d 9beb e93d 8878 953d 89d2 513c
00000020: a67a 3a3e c033 ef3d 499a 973d d91a a83d
00000030: 1992 e23d 72bb 333d 8a68 023d c062 213e
00000040: 318f 033e a66b e53b b3aa 9c3d cbd5 653c
00000050: 21a6 9c3b 0f0c ec3b 9493 19be c262 5c3e
00000060: 1217 d13c 941d ac3d 7873 d3bd e671 82be
00000070: 5e70 98bd 7574 dc3c 568c e93d ec98 0bbe
00000080: c4e9 97bd f607 ba3d 2dd7 8d3e 83ba 0fbc
00000090: b7ce 95bd 6c86 a2bd f68a 37be e3f2 cb3d
000000a0: 7729 463e e069 8dbd f827 413d 00d6 a7bd
000000b0: 7eed b4bb b80c dd3c 2c55 e83d 1b8e a33e
000000c0: 7936 533e ad46 d23c ef82 4b3c 98fc 213e
000000d0: 6791 3cbb 3543 423d 0435 e73d ce34 0abe
000000e0: 4f7e bf3d b4a6 3d3d e6b1 18be 8858 2fbd
000000f0: db3b 383d 56bb 0abe e525 cb3c bfd1 093e
00000100: 62f7 a83d e431 9d3e b285 2e3d d1d5 a2bd
00000110: 8a40 803e 0e7b 383e 76bd 053d b553 1e3d
00000120: b872 9dbd 48dc 603e 4b8b 863e 2232 683e
00000130: bc89 e63d d6d8 8a3d 184d aa3e e642 c63d
00000140: bed2 bdbb 8f62 a23d 6a32 643e 52d0 4e3e
00000150: 84be 8e3d 4c94 e63c 3015 30bd 41b5 86bd
00000160: b1d9 f9bd 6ce6 8f3d 0652 1f3d b208 b2bc
00000170: 30c7 3e3e 499b eabc 9616 0c3d 0274 8cbe
00000180: e963 18bc 8f45 373c 83c4 d7bc b370 a93d
00000190: e2de 9e3c ea49 4f3c 795b 44bd 6c81 ed3d
000001a0: e131 5fbd fe65 763d 4b39 eb3c 03bb c93d
000001b0: 5b41 63bd 3ed0 febd 9797 a43c ecba b73d
000001c0: 0b4b ed3c f36a d63d 95dd c5bd 9096 77ba
000001d0: 7a8a 9b3e cd24 5e3d 7c99 1d3e f749 843d
000001e0: d1db 4c3e a100 353e 93ac f83c e61a 2f3d
000001f0: dc9b 0a3c 6910 9f3d 2155 4e3d ac44 c73d
00000200: bb7f 853d 7e40 373d 45f1 023e 1916 173e
00000210: 227c 423e 127e 873d 9fc6 b83d fbc7 833d
00000220: e944 383d b8ea 573d 45aa babd ac00 813d
00000230: 5dda 08be ebb0 8abd 8438 883d 0c76 6a3d
00000240: 3018 123d 7bdd 293e 9a4a 753d 905a 103e
00000250: c4f2 f43d fd12 073d a3ab 293e c81f 2c3e
00000260: 7b69 663e 9ef3 4b3e be34 203e e389 313e
00000270: 8ee5 073e 686f 2e3e 8150 663e 03b0 203e
00000280: 6201 0b3e 05e9 b73d 09e6 5e3d e7d7 5a3c
00000290: 1d23 ef3d 7737 433e 4f8c 303e a282 603e
000002a0: fe2f 1a3c 30c4 0c3d 857d 363e 0ed1 7a3c
000002b0: 4693 6fbd cfe0 8d3d 6363 afbd 58fc 9cbd
000002c0: 2fd3 bcbd a19c 003d dea4 5ebd a3c5 5d3e
000002d0: b6cf 053e 80e9 ccbd e891 543e 8a72 0b3e
000002e0: 400e 2d3d 19ad 50bd 5de5 73bb de17 383e
000002f0: 096a 8bbd 5423 6a3e e1ab 643d c21b 323a
00000300: 2dba 1e3e 7a11 ba3d 3bb0 c6bb c923 07bd
00000310: 25b3 003d ef25 d3bd f5f7 51bd 097a 10be
00000320: f3fa 203e 3063 dc3d 1345 30be 1b4e 9e3d
00000330: e43f 3d3d 4c25 e13d 130f 043e c824 81bd
00000340: 5836 e53d 676a 3d3e f895 08bc 31a2 a6bd
00000350: 8acb d23d 31e5 433d 381a 973d 8e50 563d
00000360: 2021 80bd 3622 50bd 0b2f 503e 5556 0fbe
00000370: bc09 4fbd 8c52 4ebd 8e80 4ebd 481f 3a3e
00000380: f92d 37bd a97b bfbd 1265 f13c 9f53 c5bd
00000390: 0eff 4e3b f23a 18bd c8e6 213d e9e1 e33d
000003a0: f251 31bd 1048 b9bb cf46 b73b 80e0 a73d
000003b0: 46e7 9d3c 8fa7 aabd df7a 033e 1d84 883d
000003c0: 0583 993d 4fbe 183d c75b 2dbc d45f 44be
000003d0: 9c9f 943c 4982 65bd bfbd 0ebe 9cf1 653d
000003e0: b0b5 c8bc 7607 aebd 05a7 433d cb94 873d
000003f0: 8c0e 723d 0294 8abd 28c0 75bd 39b4 4e3e

l1.bias f4 [64]
0.2741696 0.049944405 0.23076747 0.0977984 0.17018922 0.07290991 0.1723704 0.19347447
0.22890027 0.13307032 0.2852585 0.18673295 0.19738795 0.22687638 0.09746131 0.1411842
0.23538636 0.18509848 0.14196031 0.33975172 0.27172792 0.14164798 0.17456403 0.105322
0.085306466 0.25810418 0.1861813 0.33637068 0.24427864 0.19880146 0.0967625 0.12808566
0.18856451 0.19741172 0.14099212 0.14015515 0.15148403 0.11764011 0.15748748 0.25750184
0.30121958 0.22738194 0.14118339 0.3237962 0.0948153 0.13766158 0.09788834 0.24901995
0.117796585 0.14889856 0.22307286 0.2074286 0.1954999 0.23871814 0.16720937 0.14580648
0.2486176 0.12605403 0.1949754 0.18795913 0.15722598 0.1756031 0.2513606 0.2754754
00000000: f55f 8c3e 8192 4c3d 4f4e 6c3e 874a c83d
00000010: 1546 2e3e ca51 953d de81 303e 2c1e 463e
00000020: d564 6a3e 9643 083e 670d 923e ec36 3f3e
00000030: 1120 4a3e 4852 683e cc99 c73d 9792 103e
00000040: 1f09 713e 758a 3d3e 0b5e 113e f0f3 ad3e
00000050: ec1f 8b3e 2b0c 113e eac0 323e 10b3 d73d
00000060: 28b5 ae3d 3b26 843e 50a6 3e3e c738 ac3e
00000070: 2e24 7a3e 9c92 4b3e 6b2b c63d e328 033e
00000080: 0e17 413e 4c26 4a3e 3d60 103e d584 0f3e
00000090: a11e 1b3e 4ced f03d 6644 213e 48d7 833e
000000a0: 7439 9a3e d0d6 683e 6192 103e 9ec8 a53e
000000b0: 862e c23d 28f7 0c3e af79 c83d 16ff 7e3e
000000c0: 563f f13d dd78 183e 366d 643e 2a68 543e
000000d0: 2031 483e 8772 743e ef38 2b3e 4b4e 153e
000000e0: 9d95 7e3e 4f14 013e a2a7 473e 5c78 403e
000000f0: d9ff 203e 4dd1 333e 56b2 803e 1d0b 8d3e

l2.weight f4 [32, 64]
-0.079060845 -0.1351659 -0.15742396 0.56539625 0.21814804 -0.09333867 0.07731076 0.31056726
0.073149234 0.17071097 -0.25775892 0.31532064 -0.24819462 0.19336571 0.5206966 0.030271329
-0.040970065 0.014606283 0.010394985 -0.07744572 0.262584 -0.23027776 0.13910332 0.09433902
0.056973934 0.1189438 0.36354133 -0.43865228 -0.5163047 -0.22966011 0.13322076 -0.028823223
0.20632255 0.17746918 0.4048748 -0.15008281 0.21455942 0.108010985 0.045081023 0.08588831
0.31267592 0.28169248 0.096655704 -0.10337799 -0.097847246 -0.050201952 -0.09876379 -0.066813834
0.42472923 0.4853317 0.372469 0.04707639 -0.07639827 0.23862441 0.54068106 -0.16689959
-0.026442619 0.15841055 0.23504989 0.0025746592 0.13471836 -0.3675307 -0.038253367 0.37193814
-0.27819434 0.39015797 0.103230916 -0.11982535 0.35537463 0.18187472 -0.18483675 -0.12954754
-0.191912 0.24071427 0.013715449 -0.11958713 -0.032834653 0.16804332 -0.020913562 0.1909609
0.33415833 -0.12687162 -0.098159194 0.07183958 0.26877597 0.18592077 0.29355153 0.14086862
-0.034088977 -0.026796551 -0.122176506 0.24847396 -0.42563045 0.20300284 -0.16337056 0.23705986
0.054465134 -0.013217144 0.3486683 0.08217797 0.12084523 0.32163203 0.20181224 -0.04101759
0.29500967 -0.20856911 -0.1153988 0.27347028 0.17287873 0.13537228 0.09704212 -0.16912396
-0.10663194 0.011493019 0.021031665 -0.018538073 0.15214011 -0.051868983 -0.08079088 0.31815556
0.3248265 0.11896211 -0.1282931 0.16937143 -0.13401109 0.3625986 0.08449399 -0.025062557
0.20823139 0.21844709 0.08350766 0.368204 0.008011169 0.13409173 0.08961271 -0.19000521
-0.11618722 0.29942375 -0.07792168 -0.047160313 0.016196184 0.1415496 0.52194023 -0.15663359
0.2085574 0.11848179 0.32523885 0.22173928 0.44560784 0.23547105 -0.28578585 -0.115424454
-0.15174356 -0.20020126 -0.14584623 0.3272166 -0.14569937 -0.09942161 -0.118958235 -0.057359874
-0.049970146 0.30648005 0.12480827 0.2806315 -0.2898502 -0.0028859493 0.46824372 -0.3858755
0.05056825 0.14828266 0.19164492 0.25868443 0.11149613 0.104875125 0.030728487 -0.4141622
-0.35766706 0.21298876 -0.30414414 -0.3564474 0.18433568 -0.10642452 0.3176307 0.24902612
-0.180925 0.15032215 0.16639747 0.22363533 0.4843592 0.028960083 0.15981159 -0.15597986
-0.3346265 0.39422363 0.082631 -0.060700193 0.13496022 0.26759228 0.0038444046 -0.23792103
-0.2885719 0.17525119 0.029142525 0.15960127 -0.027026122 0.3799742 0.2135689 0.2396556
0.19798207 -0.015382321 -0.06343659 0.095501676 0.40076035 0.14333732 0.27976066 0.284756
-0.12907995 -0.12613402 -0.3384469 0.104651645 -0.28441653 0.24123332 0.0328311 0.2686727
0.12381781 -0.21474762 0.30302745 0.1596604 0.23450238 0.14403012 0.34372687 -0.0006139527
0.25108194 -0.11670132 -0.08392454 0.22910894 0.18057129 0.07984672 0.032661818 -0.2737126
-0.02349613 0.26807734 -0.007810401 -0.27599087 0.12624705 -0.32860515 0.24269336 0.3423032
0.27936897 0.08333999 -0.04727495 0.05561861 -0.13610277 0.34729248 0.036470696 -0.20173308
00000000: a7ea a1bd ee68 0abe bf33 21be cfbd 103f
00000010: 3362 5f3e 5828 bfbd 1b55 9e3d ac02 9f3e
00000020: 44cf 953d dbce 2e3e faf8 83be b571 a13e
00000030: bb26 7ebe a901 463e 5f4c 053f 94fb f73c
00000040: 3ad0 27bd 314f 6f3c ba4f 2a3c dd9b 9ebd
00000050: 6971 863e efcd 6bbe 1a71 0e3e d134 c13d
00000060: 805d 693d cf98 f33d 1722 ba3e 0897 e0be
00000070: 8b2c 04bf 052c 6bbe 066b 083e ae1e ecbc
00000080: 3846 533e 7bba 353e c04b cf3e 4faf 19be
00000090: 77b5 5b3e dd34 dd3d e1a6 383d 36e6 af3d
000000a0: 0f17 a03e ff39 903e 6df3 c53d d7b7 d3bd
000000b0: 2364 c8bd 90a0 4dbd ac44 cabd b1d5 88bd
000000c0: 1c76 d93e 667d f83e 42b4 be3e 2cd3 403d
000000d0: b276 9cbd f559 743e 136a 0a3f bae7 2abe
000000e0: 319e d8bc 6036 223e ebb0 703e 9dbb 283b
000000f0: 9cf3 093e fc2c bcbe 90af 1cbd ad6e be3e
00000100: 7d6f 8ebe c9c2 c73e bb6a d33d fe66 f5bd
00000110: aaf3 b53e 5e3d 3a3e d845 3dbe 1ca8 04be
00000120: 9484 44be cd7d 763e c3b6 603c 19ea f4bd
00000130: a17d 06bd 8c13 2c3e eb52 abbc 418b 433e
00000140: cd16 ab3e a2ea 01be b007 c9bd a120 933d
00000150: 019d 893e 0462 3e3e 634c 963e dd3f 103e
00000160: e2a0 0bbd 7184 dbbc ad37 fabd f56f 7e3e
00000170: 3cec d9be fadf 4f3e 9d4a 27be d2bf 723e
00000180: d516 5f3d b88c 58bc a784 b23e ec4c a83d
00000190: b47d f73d f4ac a43e dea7 4e3e 0f02 28bd
000001a0: 820b 973e 2493 55be 3556 ecbd 4c04 8c3e
000001b0: 1f07 313e 089f 0a3e 05be c63d d52e 2dbe
000001c0: d961 dabd 374d 3c3c 994a ac3c 28dd 97bc
000001d0: 9eca 1b3e 9274 54bd b075 a5bd 49e5 a23e
000001e0: a94f a63e 68a2 f33d 445f 03be b46f 2d3e
000001f0: 343a 09be 86a6 b93e 2f0b ad3d fe4f cdbc
00000200: 9c3a 553e 98b0 5f3e 1006 ab3d 3c85 bc3e
00000210: 4741 033c 584f 093e de86 b73d ba90 42be
00000220: 91f3 edbd 124e 993e 6795 9fbd 2c2b 41bd
00000230: dcad 843c 61f2 103e e09d 053f 8e64 20be
00000240: 1290 553e 95a6 f23d b585 a63e 9f0f 633e
00000250: b626 e43e 531f 713e 8652 92be a863 ecbd
00000260: aa62 1bbe 8f01 4dbe b758 15be ef88 a73e
00000270: 3732 15be 8f9d cbbd 60a0 f3bd 30f2 6abd
00000280: 7fad 4cbd f4ea 9c3e 7a9b ff3d efae 8f3e
00000290: 3f67 94be 3222 3dbb a4bd ef3e 7991 c5be
000002a0: a720 4f3d 69d7 173e 913e 443e 4972 843e
000002b0: 1558 e43d c5c8 d63d 4fba fb3c 110d d4be
000002c0: 2320 b7be ba19 5a3e c8b8 9bbe 4680 b6be
000002d0: 7ec2 3c3e 19f5 d9bd 7ea0 a23e b400 7f3e
000002e0: 6744 39be 0dee 193e 1964 2a3e a900 653e
000002f0: eefd f73e b23d ed3c a6a5 233e 2fb9 1fbe
00000300: 2a54 abbe aed7 c93e 713a a93d c4a0 78bd
00000310: 0333 0a3e db01 893e 68f2 7b3b 92a1 73be
00000320: b2bf 93be 0c75 333e 4ebc ee3c 846e 233e
00000330: e365 ddbc fa8b c23e ceb1 5a3e 4768 753e
00000340: d0bb 4a3e 2106 7cbc 0beb 81bd 6296 c33d
00000350: 7630 cd3e 05c7 123e ca3c 8f3e 8acb 913e
00000360: 892d 04be 4729 01be e948 adbe 9a53 d63d
00000370: 0b9f 91be de05 773e e779 063d 788f 893e
00000380: 3194 fd3d cde6 5bbe 6a26 9b3e 047e 233e
00000390: 6421 703e a27c 133e f8fc af3e abf1 20ba
000003a0: d08d 803e 1a01 efbd a1e0 abbd 899b 6a3e
000003b0: aee7 383e ad86 a33d 66c8 053d 0f24 8cbe
000003c0: f57a c0bc 6f41 893e 64ee ffbb ad4e 8dbe
000003d0: e846 013e ef3e a8be 9c84 783e 5d42 af3e
000003e0: 7309 8f3e 28ae aa3d 61a3 41bd 57d0 633d
000003f0: 865e 0bbe 52d0 b13e 4c62 153d 1e93 4ebe

l2.bias f4 [32]
0.16571403 -0.016629528 0.03506831 0.07379849 0.23467074 0.15979844 -0.12636724 0.26032075
-0.01889194 0.1437569 0.23795216 -0.13014323 0.028832115 0.12036684 0.0197854 -0.088712215
0.13435756 0.091146454 0.08843503 0.14489898 0.0886393 0.024146639 -0.03333522 0.1834901
-0.0070052696 0.13960958 0.21079756 0.0321722 0.13009834 -0.06738791 0.16319315 -0.02550608
00000000: f0b0 293e a63a 88bc caa3 0f3d aa23 973d
00000010: 874d 703e 34a2 233e 6a66 01be c348 853e
00000020: 45c3 9abc 0235 133e bba9 733e 4444 05be
00000030: 5431 ec3c e482 f63d fe14 a23c c0ae b5bd
00000040: 0795 093e feaa ba3d 6d1d b53d 6660 143e
00000050: 8588 b53d 2ccf c53c 838a 08bd d4e4 3b3e
00000060: 768c e5bb d0f5 0e3e 51db 573e ffc6 033d
00000070: 8038 053e ac02 8abd 1b1c 273e 20f2 d0bc

l3.weight f4 [10, 32]
-0.0027901405 -0.24328306 0.37203893 -0.21683794 -0.08625062 -0.2935507 -0.026149223 0.09362407
-0.10584906 -0.31070277 -0.028404037 0.059594262 -0.37202764 -0.30811888 -0.19707626 -0.031584345
0.274488 -0.037587613 0.1139315 0.13076578 -0.7788749 0.21271922 -0.016081225 -0.39415255
-0.20692056 -0.5022687 -0.547495 0.17158696 -0.4507892 -0.13479546 -0.1357963 0.2775124
0.08943087 -0.36845946 -0.38973495 -0.35368183 -0.10099637 0.25433764 -0.0073669814 -0.45721504
0.1249041 -0.2757243 -0.6488029 -0.12182942 0.08714803 0.20750381 -0.06184448 -0.11293983
-0.3080917 0.21923922 0.24581906 0.29400033 0.1703776 -0.20853405 0.09491869 0.06207018
-0.20108657 -0.04816946 0.18496317 0.041671503 0.05229258 0.23003484 -0.101900704 -0.2600273
-0.26960972 -0.5227741 0.11658331 -0.62364334 -0.19539121 -0.061090793 0.089850195 0.3101607
-0.46737236 0.40945768 0.21583118 -0.16015264 -0.6256085 0.16731727 -0.61078316 -0.11537281
-0.7652949 -0.046657126 0.30218047 0.39002857 0.15793961 0.33388713 -0.46756122 0.07192257
-0.43723887 -0.17277266 0.22550926 0.112928495 0.16465317 -0.36791348 -0.21828815 -0.6849036
-0.24420701 -0.43476748 -0.8034785 -0.38391945 0.15321086 0.3321881 -0.022801386 -0.08051177
-0.22841527 0.22288175 0.31830028 0.14723054 0.06950333 -0.29755092 0.1329053 0.12170938
-0.5911306 0.14303899 -0.049820136 -0.10103019 -0.052008122 -0.58901614 0.27352098 0.2998159
0.35969755 0.27050257 -0.1530702 -0.4899614 0.26210818 -0.45355332 0.2726204 -0.44706115
0.21306121 -0.09056626 -0.588183 -0.16164346 0.15412435 0.12758067 0.14468728 -0.24529894
-0.10338871 -0.5814497 -0.44309667 -0.042099405 0.16925815 0.021881403 -0.19626734 0.109781474
0.15847524 0.06374516 -0.04753708 0.0069684586 0.23882416 -0.60219806 -0.115336075 -0.18262877
-0.3081165 0.26638454 0.06893769 0.012727772 -0.20680691 -0.14532065 -0.14314437 -0.6999303
-0.4611652 0.09462386 0.24001065 0.18207961 -0.48546565 -0.12157732 -0.16816215 -0.075173736
-0.31266853 0.3128434 0.28827 -0.034909658 0.11221706 0.24747467 0.32921532 -0.0046876096
-0.48234946 0.043489534 -0.5369741 -0.48536256 -0.450128 0.06939761 -0.49029374 0.18780413
0.34359336 -0.5311438 -0.3801256 0.018603304 0.2347359 -0.20344843 0.12528107 -0.10018661
0.17759435 0.25888088 0.07820243 0.22171988 0.3043038 -0.16504915 -0.11413509 0.24165685
-0.4592776 0.020568237 0.09240149 0.10620291 -0.21338657 -0.20482755 0.22002032 -0.07702424
-0.09485892 -0.42022172 -0.2530266 -0.26124966 -0.19002691 -0.31022838 -0.62328273 -0.12409114
-0.43711358 -0.2544266 0.010308328 0.04086033 -0.16593578 0.0022624866 -0.26202253 0.2221478
0.3087387 -0.44869944 -0.12477714 0.16814043 0.15680556 -0.056669753 0.038921293 -0.64294106
-0.36249954 -0.4897829 0.114311956 -0.031202411 -0.3704262 0.20064177 0.22185817 -0.04797543
-0.5292197 -0.30834875 -0.018459564 0.03566878 0.11025744 -0.43414277 -0.44887742 0.23583062
0.24740888 -0.7123689 0.26057357 -0.4270786 0.070571475 -0.31207228 -0.2552404 -0.3366394
00000000: cada 36bb 321f 79be e37b be3e c40a 5ebe
00000010: 2aa4 b0bd 474c 96be e536 d6bc fabd bf3d
00000020: 64c7 d8bd 6f14 9fbe 95af e8bc 1d19 743d
00000030: 687a bebe c2c1 9dbe 5cce 49be 965e 01bd
00000040: b189 8c3e 78f5 19bd eb54 e93d 77e7 053e
00000050: 5864 47bf 11d3 593e c6bc 83bc 5dce c9be
00000060: fce2 53be ae94 00bf a228 0cbf 7eb4 2f3e
00000070: d8cd e6be d207 0abe 2f0e 0bbe 1b16 8e3e
00000080: 8827 b73d b8a6 bcbe 578b c7be c915 b5be
00000090: 2fd7 cebd 8b38 823e b866 f1bb 1718 eabe
000000a0: b9cd ff3d bc2b 8dbe f217 26bf b481 f9bd
000000b0: ab7a b23d e17b 543e a350 7dbd ff4c e7bd
000000c0: 32be 9dbe 3f80 603e feb7 7b3e 3687 963e
000000d0: 7777 2e3e f389 55be bb64 c23d 4d3d 7e3d
000000e0: a3e9 4dbe 574d 45bd fc66 3d3e bdaf 2a3d
000000f0: bf30 563d 418e 6b3e 51b1 d0bd 4c22 85be
00000100: 490a 8abe 86d4 05bf 3bc3 ee3d 17a7 1fbf
00000110: a214 48be 573a 7abd 6103 b83d 62cd 9e3e
00000120: 6e4b efbe 70a4 d13e d902 5d3e 0eff 23be
00000130: e127 20bf 3855 2b3e 495c 1cbf 9448 ecbd
00000140: 5eea 43bf 8b1b 3fbd 66b7 9a3e d3b1 c73e
00000150: ecba 213e 41f3 aa3e 2f64 efbe 244c 933d
00000160: c6dd dfbe 51eb 30be e6eb 663e 0e47 e73d
00000170: d79a 283e 285f bcbe ee86 5fbe d855 2fbf
00000180: 6711 7abe d899 debe c4b0 4dbf 1791 c4be
00000190: 4fe3 1c3e 8f14 aa3e f9c9 babc 5be3 a4bd
000001a0: b1e5 69be 1d3b 643e 41f8 a23e 9ac3 163e
000001b0: c357 8e3d 9858 98be 5418 083e c442 f93d
000001c0: 5654 17bf d078 123e 3310 4cbd ebe8 cebd
000001d0: 7806 55bd c3c9 16bf f10a 8c3e 7881 993e
000001e0: 472a b83e 507f 8a3e 6fbe 1cbe 38dc fabe
000001f0: 0b33 863e 2438 e8be e794 8b3e 33e5 e4be
00000200: b82c 5a3e ce7a b9bd 2993 16bf dd85 25be
00000210: c6d2 1d3e 82a4 023e e728 143e a52f 7bbe
00000220: 76bd d3bd e3d9 14bf 91dd e2be 6d70 2cbd
00000230: 0252 2d3e a140 b33c 4efa 48be 1cd5 e03d
00000240: 5547 223e d38c 823d 3eb6 42bd ab57 e43b
00000250: 528e 743e a729 1abf 5235 ecbd 0903 3bbe
00000260: 72c1 9dbe 8e63 883e 342f 8d3d 2588 503c
00000270: 31c5 53be f0ce 14be 7094 12be a22e 33bf
00000280: d81d ecbe 28ca c13d 5ac5 753e 1473 3a3e
00000290: f48e f8be 88fd f8bd b332 2cbe b0f4 99bd
000002a0: 1716 a0be 032d a03e 2098 933e 6efd 0ebd
000002b0: 0fd2 e53d 006a 7d3e e98e a83e 859a 99bb
000002c0: 82f6 f6be 1522 323d 2277 09bf 7181 f8be
000002d0: 2d77 e6be 5620 8e3d c807 fbbe ba4f 403e
000002e0: 78eb af3e 0af9 07bf d39f c2be f565 983c
000002f0: 9c5e 703e c954 50be ae49 003e a32e cdbd
00000300: 4bdb 353e 098c 843e 9828 a03d 890a 633e
00000310: b5cd 9b3e a502 29be a8bf e9bd e574 773e
00000320: 6f26 ebbe b87e a83c fe3c bd3d e980 d93d
00000330: 0282 5abe 50be 51be 024d 613e e2be 9dbd
00000340: 6545 c2bd 4d27 d7be b48c 81be 84c2 85be
00000350: 6a96 42be 41d6 9ebe 758f 1fbf 7f23 febd
00000360: 5acd dfbe 3444 82be 43e4 283c 295d 273d
00000370: 12eb 29be 3a46 143b d127 86be b67a 633e
00000380: 0013 9e3e efbb e5be 288b ffbd 012d 2c3e
00000390: a391 203e 8b1e 68bd ef6b 1f3d c997 24bf
000003a0: 8a99 b9be d3c4 fabe 631c ea3d 339c ffbc
000003b0: 81a8 bdbe 0975 4d3e ca2e 633e e281 44bd
000003c0: f17a 07bf e3df 9dbe 8338 97bc 6d19 123d
000003d0: a7ce e13d f647 debe 43d3 e5be 957d 713e
000003e0: c158 7d3e cf5d 36bf e669 853e 0caa dabe
000003f0: c787 903d f0c7 9fbe dfae 82be 005c acbe

l3.bias f4 [10]
0.039545026 -0.19390525 -0.017043456 -0.11580395 -0.21549709 -0.015352966 0.12010228 -0.05963034
-0.1342677 0.09714973
00000000: f7f9 213d 198f 46be b89e 8bbc 9f2a edbd
00000010: 45ab 5cbe 028b 7bbc 2ff8 f53d f23e 74bd
00000020: 797d 09be 70f6 c63d
